model/fashion-mnist/nn_parameters.npz (npz, 64646 bytes, 4 tensors)

W1 f8 [10, 784]
0	0x3fdf30122bfa5671	0.48730901999201764
1	0xbfc77e03e3553af5	-0.18353317833176389
2	0x3fb78e01fe8f43db	0.09201061692080208
3	0xbf75aa48341c41db	-0.005289346737996382
4	0x3fd16725e46ef888	0.2719206553264333
5	0x3fd749b60adf9d3e	0.36387396871437605
6	0x3fddff3cd19c52b8	0.4687034651736144
7	0xbfa18eb4eb7e1002	-0.034291890856394516
8	0xbfb0991fdba8988d	-0.06483649361379858
9	0xbfc434ab4e41e386	-0.15785733529244456
10	0xbfdd836faefb9808	-0.46114723289645143
11	0x3fbd245d186f93dd	0.11383611532762879
12	0xbfbb582989a38d22	-0.10681399927448301
13	0x3fc75a4ce1a0f2bd	0.18244324700380857
14	0x3fd99133dcf080d4	0.39948746276969627
15	0xbfc6c4ccc81c5e4d	-0.17788085719142757
16	0x3fcbc171fa54e64d	0.21684097979759756
17	0xbfe2d8add3f0234f	-0.588950075093729
18	0xbfdb002a9eedd89c	-0.42188516159456824
19	0x3fd272c5df138bec	0.28825518402862715
20	0x3fca0e0d610331c0	0.2035538409894695
21	0x3fd7732bfa72dbe8	0.36640452821614966
22	0xbfc8a4087e3dad4c	-0.1925058952723283
23	0x3fd27857712aa2ef	0.2885950665609433
24	0xbfd5357ba8f147ac	-0.33138934610644344
25	0xbfcaf0a9153b9a9c	-0.21046937500724006
26	0xbfd8378218e25bc5	-0.37838795118426233
27	0x3fda7e3cb49a5939	0.4139549030018262
28	0x3fb987dabb364cd5	0.09972922392471457
29	0xbfd38bab72c3f327	-0.30539976317941114
30	0xbfb1724c1c3519c8	-0.06815028847368076
31	0x3fc090b4ad438793	0.12941606960435745
32	0x3f608daa348a4552	0.002020676071261698
33	0x3fc64a1ea8f29b9d	0.17413695573233393
34	0xbfdbb0dbdbe84550	-0.43266960597346316
35	0xbfc081adec66271f	-0.12895750086709598
36	0xbfe12d6773822b05	-0.5367924934410843
37	0xbfe53df1dd544d58	-0.6638116190755836
38	0x3fb1b2cdcf074f94	0.06913458160789637
39	0x3fa9768c715d9b3f	0.04973257907732042
40	0x3fd1c9af5dfd594f	0.27793487719227
41	0x3f97169706e20e5a	0.022547111315829184
42	0x3fb126a5272d8fff	0.06699592787259688
43	0x3fd1c6c13d0f1d9a	0.277756032588934
44	0xbfd715b950efe266	-0.360700921096884
45	0xbfd6210e1d22769e	-0.345767525150089
46	0xbfe136519dc63c77	-0.537880714562461
47	0x3fcabc278b146c13	0.20886701861385912
48	0xbfc375beaebbfff4	-0.15203078777267331
49	0xbfb6ddcff4fd0676	-0.08932208758508317
50	0x3fd1a61e0cf33e5b	0.2757640005556589
51	0x3fdabb0d3bff71a0	0.4176667295376095
52	0xbfd9e939c978011c	-0.4048599688976695
53	0x3fd49b55b9f87e49	0.3219808879966633
54	0xbfd7d6a10d36cdbe	-0.37247492113530345
55	0xbfdc48dfde5dcbf2	-0.4419479056879815
56	0x3fdf31a3fe6899fa	0.48740482182111544
57	0x3fc05e2dc161ffd4	0.12787410681266798
58	0xbfc833866ee177e9	-0.18907242216204104
59	0x3fcaf07c7ceb3934	0.21046405887177289
60	0xbfdb47156123f02d	-0.42621359335294323
61	0xbfda137074a5bb8d	-0.4074364794859598
62	0xbfc23d4df2b9dda3	-0.1424958644090398
63	0x3fb0beaa2cd1fdcd	0.06540931314702121
64	0xbfd187412b4f8f13	-0.27388028363769584
65	0xbfd7dbd902db34d7	-0.37279343871052845
66	0xbfc17e091e0802c5	-0.13665880171176617
67	0x3fc17c2270cafae9	0.1366007853266276
68	0xbfb64686ce05c480	-0.08701365022513308
69	0xbfcccf8607cc3254	-0.22508311634773526
70	0xbfa7b1e88bd296d9	-0.04627920824831983
71	0x3fcf49b0f8381a42	0.24443637962413517
72	0x3fe04e9be445095d	0.5095958193199227
73	0x3fd368ccc14a2eaa	0.3032714736552672
74	0xbfc9cf917aecee72	-0.20164698126051267
75	0xbfbbe14fa7b1495a	-0.1089067253499584
76	0xbfe260910ce1ff91	-0.5742879153840353
77	0xbfe038e00345528e	-0.5069427551157604
78	0xbfd0d90dc22b093c	-0.2632479091809221
79	0xbfd972eaed8bf60d	-0.3976390189926356
80	0xbfd58979b69ca47f	-0.3365158351248922
81	0xbfc6a4b598b552d0	-0.17690153080424986
82	0x3fdd591603f2b527	0.45856237779192316
83	0x3fafca6a2447b242	0.06209117596504089
84	0xbf992c307cec53e9	-0.024582631706909473
85	0x3fde7a1c241ad339	0.47620299840791663
86	0xbfd6aa770d5443e0	-0.35415436078716134
87	0xbfc33b47167f9c75	-0.15024651144560477
88	0xbfabde755a21e873	-0.0544315979504554
89	0xbfd23bad2188160b	-0.2848923518616579
90	0x3fb67db03d787b7d	0.08785535336254031
91	0xbfe1b7b6e15ec931	-0.5536760713351098
92	0xbfada4642fb09492	-0.05789483148718334
93	0xbfc255bc19a4761c	-0.1432414174277462
94	0xbfd049239ea75d45	-0.25446405881435324
95	0xbfbaa26a155550f3	-0.10404074688750935
96	0xbfd6fbe512ad9ce2	-0.3591244394687704
97	0x3fbd9a929facf292	0.11563984297112942
98	0x3fb8fd2022b73c5a	0.09761238906433914
99	0xbfcf773686a97324	-0.24582559180535057
100	0xbfd09fea270a435c	-0.2597604161501772
101	0x3fc8d14894ef0fc0	0.19388682624969356
102	0x3fc7e859343d85ab	0.18677821207806508
103	0x3fd31efd479cc92b	0.29876644128229896
104	0xbf71db554482f36b	-0.004359562946942268
105	0x3fc790ec397d5ec6	0.18411019141307444
106	0x3fd7c3f6fb1dbe39	0.3713357403093798
107	0x3fcfc542b999941b	0.24820741713043123
108	0x3f8547c3ed3a6a7b	0.01039078777039503
109	0x3fd1acbb1aa1d00a	0.27616765595234993
110	0xbfd9042590eedc87	-0.39087809709185034
111	0xbfd4b002132a57fe	-0.3232426821863327
112	0xbfc062a676926b9a	-0.12801056661268434
113	0x3f9ae839a6cb212b	0.026276493840471076
114	0xbfd86402cfe90e44	-0.38110418609378294
115	0xbfdad91b93493c97	-0.4195012033787377
116	0x3fda3e632b43f4d8	0.4100578234209258
117	0x3fcaf05d05e11d56	0.21046030795171572
118	0xbfd6c8db8edd050a	-0.35600937797069376
119	0x3fd664311480a60e	0.34986521722984854
120	0x3fc7a9234763c4f2	0.18484917627169
121	0xbfb843a688dbf8a0	-0.09478226510325038
122	0x3fa72158849ceb7a	0.045176283062082725
123	0xbfbafd6b6d9ba931	-0.10542937684991639
124	0x3fdedcd9acbf58f5	0.482229632090266
125	0xbf7afc7d1f731ad0	-0.0065884482966740016
126	0xbfc3d12391d91d25	-0.15481991406907372
127	0x3fd4535fd85a7c93	0.31758876922862916
128	0x3fc4f8fbcc6f6499	0.16384837610420247
129	0xbfc801a356c96709	-0.18754998910554146
130	0x3fd9f855d96c0157	0.4057821868191431
131	0xbfa455192132a6dc	-0.03971174745795533
132	0xbfbc1c798dede47a	-0.10980949130125053
133	0x3fc30df8c8527438	0.14886388570167397
134	0x3fd7f774825dca53	0.3744784615620677
135	0x3fdbae41c8e8b852	0.43251080150628696
136	0xbfd7c480c53c2efb	-0.37136859189261856
137	0xbfce4ee3b9b814b8	-0.23678251808465745
138	0x3f9bb6e1fae5161f	0.027064829767615813
139	0xbfbf40321cc7c2eb	-0.12207329943317873
140	0x3fbeeab3b8433f32	0.12076876877403889
141	0x3fcb2f797ea4ecb0	0.21238630946922887
142	0xbfdacdbe3755aaa3	-0.418807558095674
143	0xbfd85ad8289cf517	-0.38054470029949655
144	0xbfe14b17d3fda4b4	-0.5404166355557636
145	0xbfe0d243c3f2e4ee	-0.525667078697692
146	0xbfd590df539e7a75	-0.3369673077194542
147	0x3fc160e28ea68180	0.13576919522621367
148	0x3fdeb2584a13c74a	0.4796353076372851
149	0x3fdc2c7d53b160d0	0.4402154271424594
150	0xbfd73343b9ad6fd2	-0.3625039399391855
151	0x3fd94e5056967db2	0.3954048963150526
152	0x3fb11fab459a37ef	0.0668894810607694
153	0x3fda95cef45527c6	0.41539358006104654
154	0x3fd6f7904ab68a1b	0.3588600854510859
155	0xbfd0e91a48257143	-0.2642274574807468
156	0x3fdcf9b1877bb6d5	0.45274008017336814
157	0xbfd89f4217c7130f	-0.38472034761461854
158	0x3fc96664a9e4d9dd	0.19843729301074023
159	0xbfcc29f6ff63fba2	-0.22003066511385067
160	0x3fb40639970562e1	0.07821998536145315
161	0x3fcb9b9a49e62c51	0.21568611725192224
162	0xbfb8a3c67fd1620f	-0.09624901409677754
163	0xbfb459f9c87fe204	-0.0794979204655491
164	0xbfd896398e4c810f	-0.3841689958226348
165	0x3fc6c84917505c89	0.17798722875952347
166	0xbfde9e724550dfd8	-0.47842079896099454
167	0xbfc81eb7e16369e2	-0.18843744759835973
168	0x3fd5a88b86fa1092	0.3384121721394503
169	0xbfa442ae87d0c2ea	-0.03957124145416009
170	0xbfc486a1d7ddbb45	-0.16035864868487174
171	0xbfb330029046f85d	-0.07495132467644923
172	0x3fcc5ecf60568578	0.22164337352755203
173	0x3fdba4e133b37328	0.43193845795558383
174	0xbfbab69e26e581e3	-0.10434902619954971
175	0x3fc01715dc45d175	0.12570451026443732
176	0x3faa9230de078de5	0.05189659796067384
177	0x3f9d4f3ca52ec250	0.02862257726855183
178	0x3fc4a2ef8a6e3d6b	0.16122240313823552
179	0x3fd8f921c3cc5afd	0.3902058040707031
180	0x3fd1ff9072a545fb	0.2812234038911751
181	0x3fc5a799d844eb68	0.16917727527637827
182	0x3fd248c34cf4afec	0.2856910945436073
183	0x3fbd4ae51d30fc05	0.11442405665091833
184	0x3fc8b33bd017d2a6	0.19296977673333976
185	0x3fadc5d5e529a346	0.0581499902953682
186	0xbfcefff8f2f156fd	-0.24218665945470966
187	0xbfc6499861919516	-0.17412094844909437
188	0x3fd89efde7b6e94d	0.384704090388955
189	0x3fd6e76f673caa17	0.3578756817029513
190	0x3fd5c5abed1504fb	0.3401899161581949
191	0x3fa7811452b3976b	0.04590667256870414
192	0x3fc1ac4e45d2d8ae	0.13807085427624116
193	0xbfc3980e0e2317f8	-0.15307784738814667
194	0xbfc1716ed622b4ff	-0.13627419906462276
195	0x3fdae2e4039d1d31	0.4200983081140804
196	0xbfbcfe73b4347588	-0.11325762891325131
197	0x3fa358c8ca178fca	0.03778674570983716
198	0x3fddefd2e43f4bb7	0.467762682817177
199	0xbfd15f062785dd8c	-0.27142480716380457
200	0xbfddf77b6200aea0	-0.4682301003510734
201	0x3fd458561acb0127	0.31789162270071575
202	0x3fb950f2325b68f3	0.0988913891737047
203	0x3f8e81754906e11b	0.014895359316924364
204	0x3fd0e1101ac44a17	0.2637367497819993
205	0x3fdc97a8ab9c1493	0.4467565227390164
206	0xbfc7caac0eefec90	-0.1858725617347301
207	0x3fda8508bb952a3a	0.4143697578298632
208	0xbfc3f466dabc07e7	-0.15589605026622097
209	0x3fa36e33a002789e	0.03795014694445452
210	0x3fd12c93091f94e2	0.2683456029029242
211	0xbfcc4fe2e1d50b2f	-0.22118793513262733
212	0x3f8e74595001b69b	0.014870355371580593
213	0x3fceb6a8d7b2016c	0.23994932682036152
214	0x3fdee9136f738798	0.4829758251563532
215	0xbfcab1b66d0a99e8	-0.20854835819518702
216	0x3f73fec6278abe72	0.004881643334257656
217	0x3fbdd0ee3aa45f58	0.11646927768412974
218	0x3f971a5cab4c9854	0.022561500506661794
219	0xbfd4114be718644c	-0.31355569427393415
220	0x3fcfabba725250f6	0.2474282320223506
221	0xbfb324b397fb0914	-0.07477877102340741
222	0xbfd4bb663aed0ec2	-0.3239379477929384
223	0x3faedf399651e511	0.06029682121238456
224	0xbfb632ea333c7239	-0.08671439886934075
225	0xbfd6302bce395e0b	-0.34669013156005296
226	0xbfd345f3fe3cd8a6	-0.3011445982732631
227	0x3fd747dde2e92a99	0.3637613979268877
228	0x3fc1ce2c1e61f648	0.13910438045052076
229	0xbfa1bbfa9c46788f	-0.03463729055077735
230	0x3fd391470ef75100	0.3057420393136141
231	0xbfc7e3f62b7f7794	-0.18664433597490115
232	0xbfaa054056ad5b76	-0.0508213144118405
233	0x3fc8966bbfe0d657	0.1920904814630144
234	0xbfc885125f606acf	-0.1915610280710411
235	0xbfded306f8965015	-0.48163007999505797
236	0x3fdc7d8a85a0b144	0.44516242074566414
237	0xbfd468fc4e74892f	-0.31890781079904945
238	0xbfb690a043d0a3dc	-0.08814431815757423
239	0xbf9a0532d218a445	-0.025410455773599478
240	0x3fb93ea746a6f26c	0.09861226534753492
241	0x3fd751bfd7bf3201	0.3643645865347765
242	0x3fc03d2142d352d1	0.12686553729022035
243	0xbfb8c332e565a599	-0.09672849751009095
244	0xbfd040d65b137b0c	-0.2539573563971522
245	0xbfcf91c6a79bf7e3	-0.24663623031659573
246	0x3fa502d9f8c482f7	0.041037379853383564
247	0xbfdfc5d1b4c0a187	-0.49644892360313303
248	0xbfd8d6f0f087c77e	-0.3881189679078644
249	0x3fd4375b7e5adc63	0.3158787473616426
250	0x3fba340dc2ddb476	0.1023567772624164
251	0x3fa3b3de2282d24f	0.0384816567542755
252	0xbfb62315f3110632	-0.08647286590805761
253	0x3fb546a8a7d06137	0.08310941788693503
254	0x3fc7a1116fd09890	0.18460290870388407
255	0x3fd7c1b3b4a47f73	0.3711976303184123

b1 f8 [10, 1]
0	0x3ff2cef5c279c8d9	1.175527343436036
1	0x3ff4adc73b392556	1.292426329937674
2	0x3ff9a2071096617f	1.602057518763189
3	0x3ff403fc829cfc7e	1.2509732343749245
4	0x3ffa6212be8bc6d1	1.6489436572268696
5	0x3ff6e9b35101df83	1.432055775103408
6	0x3ffadc9bce45695e	1.678859525438916
7	0x3fe8b2ccdb965094	0.7718261994182449
8	0x3ff3eb08c4d83689	1.2448814095727434
9	0x3ff1e79ae673e73e	1.11904420872311

W2 f8 [10, 10]
0	0xbfccbdc22e3c8642	-0.2245409703983104
1	0xbfc067a60a800ab9	-0.12816310417846014
2	0xbfb0b27ac2a96071	-0.0652233815429797
3	0x3fc2c9516350e140	0.1467687354031657
4	0xbfcb9775dd264189	-0.2155597047644842
5	0xbfb3da95c863d172	-0.07755409376460934
6	0x3fd5b74851932713	0.339311675703912
7	0xbfd40d93a2f41d49	-0.313328656324718
8	0x3fc60c3c6dd3dec7	0.17224841463734306
9	0x3fe61b929dab06f2	0.6908658103422722
10	0xbfdb8e16c73f14a0	-0.43054742295891835
11	0xbfca27f6a6cf8d77	-0.20434458870941416
12	0xbfd071e218d1c0b2	-0.2569508783699447
13	0xbfe66bf0cdab76f1	-0.7006763474452936
14	0xbf38f667da81e72b	-0.0003808978604023956
15	0xbfd4fcbc89337672	-0.32792580984628394
16	0x3fed9f1cbbf3b0b9	0.925672881215653
17	0xbfc84b5ef461ca06	-0.1898001378318243
18	0x3fd7e671ee41f53f	0.373440249131665
19	0x3fc8ecb6dc300cdc	0.1947239470610843
20	0xbfd8f91baee9a6ac	-0.39020435410803134
21	0x3fd988d911097ef5	0.3989775339486948
22	0xbfd2f0b08d6b7e15	-0.29594053087746036
23	0xbfbd7fb521427b70	-0.11522991239551827
24	0xbfdc968ec0f63258	-0.44668930858532496
25	0x3fd7e26ce73c6c72	0.37319490987437753
26	0xbfdfbd08864bf1b6	-0.49591267695339114
27	0x3f76f0c4641166c5	0.005600707199016679
28	0x3fdd32b0f2286593	0.45621894500944754
29	0x3fe09d33a276b8a8	0.5191896603698938
30	0xbfd1cd56d8808f6b	-0.27815791266242823
31	0x3fcca2048ff852ca	0.2236943915346699
32	0xbfd1543751faa50f	-0.27076514249581946
33	0x3fe06eaae8841cae	0.5135092297868107
34	0xbfe024919d070548	-0.5044639651243097
35	0xbfe1d42cf9273ac6	-0.5571503511690359
36	0x3fd02897eb673097	0.2524776266916517
37	0xbfd9a8c2130d5b16	-0.40092517719806275
38	0x3fbe4be251e29633	0.11834539889476829
39	0xbfd1ddfcbd40af32	-0.2791740272684705
40	0x3fd272cda348544a	0.2882570356899278
41	0x3fd648b03bfe76f9	0.3481865487936911
42	0xbfc1b414ac2c938d	-0.13830812842311638
43	0xbfdb4132a96df65e	-0.42585436387876097
44	0xbfd53a70d43c00fe	-0.331691939602038
45	0xbf705517823bd90f	-0.003987399893722334
46	0xbfcfc38baf1a36a1	-0.24815507936402972
47	0xbfd635ee78aa9451	-0.3470417192823492
48	0x3fd45d0824d545bc	0.31817821118337597
49	0x3fbfbb77e3db83e5	0.1239542895596198
50	0x3fe3ab142ad84da2	0.6146336399855736
51	0xbfedbbc3021a4a56	-0.9291701355999276
52	0x3fda1aedec1109d2	0.4078936391198599
53	0x3fda1bfba31bd757	0.40795794418896975
54	0x3fe4054f9488fdb2	0.6256482983662208
55	0x3fd3e89b1713723e	0.31107213262092503
56	0x3f9e0ee7ef802f5d	0.029353736870731385
57	0x3fdb9606571c5d04	0.43103178507722384
58	0x3f9a02641900fe6b	0.025399745966068126
59	0xbfc4d8cc0be2464d	-0.16286612110393364
60	0x3f92c13f41e0cd23	0.018315304180032698
61	0x3fc9843af13a9141	0.19934784678219766
62	0xbfbcd0b08479e903	-0.11255934938700211
63	0x3fc6432610349b8c	0.1739242152336512
64	0x3faf8312ddd288ba	0.06154688794892267
65	0xbfbb2a38a172e5e4	-0.10611299459096518
66	0xbfc03ac0070170c8	-0.1267929109770931
67	0xbfdeda833496a17e	-0.48208694587312795
68	0xbfc94352f2bf0c0b	-0.19736706593366224
69	0x3fdf7346062c873e	0.49141073801921553
70	0x3fe0721dd3950cc7	0.5139302380051952
71	0xbfe75b40ac6bbd2f	-0.729889237174495
72	0x3fdd5502fc256dc5	0.45831369994786214
73	0xbf85facd1784c321	-0.010732271461706912
74	0xbfd6f02ece0397f1	-0.3584095966201622
75	0xbfdb3f1eb12e4229	-0.42572753241350597
76	0xbfdc588ee2e6cb89	-0.4429051605067618
77	0x3ff09768e4ada861	1.0369652683971469
78	0x3fcd4567aced84a8	0.22868057197323322
79	0xbfda74dd4890014b	-0.41338283621009414
80	0x3fc056981241124d	0.12764264003102924
81	0xbfd1937ae82e8fae	-0.27462647127162654
82	0x3fcee279640538ac	0.241286443555912
83	0x3fd547d3fca17708	0.33250903769463536
84	0x3fe8718c8c5c881c	0.7638609639582259
85	0xbfe245ae803c2f94	-0.5710060600845162
86	0xbfdb52979e32d080	-0.42691603135177303
87	0xbfc0fecb7ee35cd0	-0.13277572341642108
88	0xbfd573ffb7bd72c3	-0.3352050108276609
89	0x3fdd0a246eee991d	0.4537440379448457
90	0xbfd39b98fe574210	-0.30637192571615035
91	0xbff174fd6b3b2524	-1.091061991568787
92	0x3fea86e15a3a76bd	0.8289648782990394
93	0xbfc2b2fccde02b06	-0.14608726551554002
94	0xbfd480c640244f28	-0.320359766615399
95	0xbfbb3966eb926bd3	-0.10634463549870014
96	0xbfc9716a2916946c	-0.19877364164600253
97	0x3fe4829f30822ac7	0.6409450480872118
98	0xbfbb381fb2386d0d	-0.10632513142666174
99	0xbfe60208e3d5c1d5	-0.6877483796980025

b2 f8 [10, 1]
0	0xbfd87cdd6d1e357c	-0.3826211515050415
1	0x3fd04226b0893c14	0.25403754463053585
2	0xbfd779a07facc39e	-0.36679851978538547
3	0x3fdf22f5a91c669c	0.48650876536121657
4	0x3fc01a484a74d5fc	0.12580207477155614
5	0xbfcabb08be50f33c	-0.20883282940658343
6	0xbfc8ac2ba4018db4	-0.19275422580822765
7	0xbfd2db435181cc7e	-0.2946327491728836
8	0xbfdf51b638726330	-0.4893622924078498
9	0xbf6c7ef1525ffd13	-0.003478499728771242
