model/mnist/nn_parameters.npz (npz, 64646 bytes, 4 tensors)

W1 f8 [10, 784]
000000 f6 48 e9 aa 49 1f d2 3f 94 52 62 e3 30 76 c3 3f
       0.283159653573548 0.15204440214860837
000010 f0 ca 04 f4 58 c0 d5 bf dc 15 80 06 cb 70 cf 3f
       -0.339864958095105 0.2456296712627325
000020 88 2c 57 52 d9 6a c1 3f 62 36 23 04 86 7a db bf
       0.13607327003987657 -0.429353241005492
000030 a8 21 55 05 44 d5 c6 bf 1e 56 46 c8 ea 96 dd bf
       -0.17838335285547413 -0.462336249905407
000040 20 82 fe 60 6b 10 a4 bf f8 b6 cf 29 8a d5 d2 3f
       -0.039187770452603354 0.29428342898505333
000050 86 bc 01 df d9 e8 d5 3f 18 5a 63 ca 45 c4 c3 3f
       0.34233710077291624 0.15442726499777915
000060 0b 8a 97 71 86 3a c8 3f 43 26 91 b9 1f 06 d8 3f
       0.18928604647142352 0.3753737747361791
000070 e8 37 cb 05 ba bf cf bf 1a 0f b9 64 de 25 b8 bf
       -0.24803853304768997 -0.09432783087782717
000080 84 97 e8 91 3e b6 d5 bf e8 cf 48 a7 02 5b da 3f
       -0.33924831627734187 0.41180483185166716
000090 9a 12 5c 37 b3 b5 d5 3f 20 d7 1e 09 f9 1f ae bf
       0.3392150917646092 -0.05883768307050574
0000a0 a0 c6 4f 0d 0f 41 cc bf a0 1a a5 e8 0c 08 92 bf
       -0.22073543691617648 -0.017608834933776962
0000b0 1a 02 4b c6 6a 23 dd 3f 80 09 64 94 29 bb 70 bf
       0.4552866875128828 -0.004084741993440111
0000c0 b4 6a 19 cd 5c f1 d7 3f 78 97 72 27 f1 3b b3 3f
       0.37410659817912095 0.07513339245869399
0000d0 30 ae be 47 36 58 dc 3f c8 5a 8b f7 76 4e c5 bf
       0.4428840351708656 -0.16645705306173952
0000e0 00 2d 99 9d d8 3c 92 bf 90 0f f3 7c 3d d0 a9 3f
       -0.017810234660186275 0.05041687155019681
0000f0 e8 18 29 7f 47 d8 c8 3f 6c 76 75 b8 85 91 d1 bf
       0.19410031994829713 -0.27450697911795063
000100 1a f4 38 2d 9c 21 b4 bf 1f f7 7b 2f a3 db df bf
       -0.07863784889282535 -0.49778060567028776
000110 f7 c2 d6 71 c2 e0 90 3f 98 c1 b8 5d 61 88 da bf
       0.01648238963906842 -0.4145739951373115
000120 b3 47 21 52 99 3e d6 3f b5 47 b3 d7 5c a2 dc bf
       0.34757073421962587 -0.4474098307083481
000130 54 0a aa 6e c0 ea bd 3f e8 14 95 0a ad 1c de bf
       0.11686327649844347 -0.47050024064476625
000140 23 94 28 a7 db 1b c7 bf 6e e9 a5 07 1f 32 da bf
       -0.18053765928303375 -0.4093091559112939
000150 18 85 fc db 3a 30 d0 bf 25 f1 c9 76 70 bd b4 bf
       -0.25294372065589377 -0.08101561451070845
000160 e7 98 38 38 14 21 d3 bf ba 04 29 ed 18 8b d4 3f
       -0.2988939808877959 0.3209898296373229
000170 f2 9d 5c 53 87 58 b1 bf f0 33 80 87 a4 73 d5 3f
       -0.06775708947372275 0.3351832698106696
000180 27 42 01 4c 5c e3 cd 3f 45 3a 02 32 eb 34 ca 3f
       0.23350099288156054 0.2047399515326608
000190 40 fb 8f e5 58 ff ac 3f 74 a8 c1 57 e8 d4 da bf
       0.056635644934422746 -0.4192448479649393
0001a0 58 dc 34 e5 04 cd df bf fc a3 9f 22 b4 99 c3 3f
       -0.49688837417074216 0.1531281632481124
0001b0 80 b7 44 8b 50 ec 8e 3f 80 d1 27 ef 0b a9 99 3f
       0.015099171877036133 0.025058924171348362
0001c0 b0 ac 22 a5 50 b2 dd 3f f0 20 56 77 02 73 c7 3f
       0.46400848509319825 0.18319731547331441
0001d0 42 bc b6 31 4f 3e c9 bf b4 ec 43 7e 35 01 d1 bf
       -0.1972140305274213 -0.2656987889346951
0001e0 49 67 5e 1b 4c 0b c0 3f d5 1f 9c dc 3b d1 ca 3f
       0.1253447660099545 0.20951030990568023
0001f0 1c 46 ef 7f c3 8b d4 bf 27 e6 4f 03 48 38 db 3f
       -0.32103049749011503 0.425310137972334
000200 48 cf 05 5e f9 18 b2 bf 9e f8 f0 fe 1b bc c2 3f
       -0.07069357438541346 0.14636564205460884
000210 65 f3 d0 6c 9c 9e df 3f 29 6b 26 bd 45 b2 d7 3f
       0.49405584932883634 0.37025588485419064
000220 b6 69 c5 f3 b4 42 d5 3f a1 fa 22 30 33 39 da 3f
       0.332196462686308 0.4097412080845207
000230 a5 4d 1c 3f e7 3b cc 3f 5a 57 e0 28 64 7c d5 3f
       0.22057810384340573 0.33571723930196173
000240 d2 47 80 58 4d 4a a9 3f b5 e0 c7 25 fd 6c d1 bf
       0.04939500527701991 -0.272277151961599
000250 38 6f dc 58 97 58 d9 bf c8 08 d4 87 c1 81 c8 3f
       -0.39603217771376675 0.19145983822097024
000260 79 02 e3 2c 18 51 85 bf e6 b0 c1 3e 1e da c4 bf
       -0.010408581609568689 -0.16290643753325823
000270 4d 99 c8 cb 2d 3d c5 3f d9 5f f8 c6 b7 80 c8 3f
       0.16592953157778326 0.1914281579527131
000280 c7 30 85 56 74 ca d8 3f e8 2f f0 cb 87 9e d5 bf
       0.38735683869596155 -0.33780093112795706
000290 e0 88 a5 db fa d7 de 3f a8 c0 1d 65 ac 0f b9 3f
       0.48193236780038085 0.09789540737779368
0002a0 80 fd 42 53 0d 83 ae bf 98 09 06 77 43 d1 cf bf
       -0.05959359780672013 -0.2485737162752002
0002b0 a9 86 cf d0 09 db b9 bf 61 55 e4 20 6b 47 d8 bf
       -0.10099850986400817 -0.37935903751470873
0002c0 c1 0e 34 31 b1 ac d3 3f d8 5b b2 06 2e b1 c4 3f
       0.3074152927876917 0.16165709807384476
0002d0 7f 65 87 b3 73 08 d6 bf 2c a7 ac ab 22 9f cf 3f
       -0.344265866585907 0.24704392797985386
0002e0 49 0d a5 8a 57 19 cb bf 3a 2c ce c9 09 31 da bf
       -0.21171087522280121 -0.40924305636935154
0002f0 ed a9 1b 76 e5 e1 c6 3f 0a 95 3d 37 33 8c de 3f
       0.17876880900378414 0.47730713266931046
000300 21 d4 77 05 26 b3 db 3f 2a ec 0d a0 0c de b9 3f
       0.43280935796730274 0.10104445369317774
000310 37 cc 35 90 87 fd bd bf cd 35 c9 17 d1 93 c4 bf
       -0.1171498038363986 -0.16076100980209987
000320 4e 58 62 2e be c9 d7 3f a7 d0 24 a5 73 3a d5 bf
       0.37168840913489454 -0.33169261100125386
000330 24 db bd 28 a3 6c b9 3f c9 6a 2f b5 b2 8e c5 3f
       0.09931392426174718 0.1684172997182343
000340 a8 ff 43 17 d8 86 d7 3f ed 32 9a f6 3a 71 b4 3f
       0.3676052310183828 0.07985275765004092
000350 40 60 06 9f 85 b6 c2 bf 0e b3 d1 85 5f 8c 70 bf
       -0.14619512810600277 -0.004040120254199987
000360 b4 65 7b e4 a2 03 c1 3f 22 b1 a4 b4 69 ee c1 bf
       0.13292347103451407 -0.14008828468775741
000370 48 58 39 87 00 84 db bf 10 6e c7 72 3b 35 ae 3f
       -0.4299317665621669 0.058999879609214045
000380 a0 3c c9 02 f4 ce a0 bf 4c e6 27 cf 16 66 c7 bf
       -0.03282892736444265 -0.18280301203758353
000390 1e bd 31 0c af dc c8 3f 4b a4 a8 b1 14 f6 bf 3f
       0.19423473449158107 0.12484864556667323
0003a0 02 a8 32 f5 17 a7 de 3f ac 01 d0 1d cf f5 d4 bf
       0.4789485830793866 -0.32750299369220204
0003b0 3a 93 68 ed 56 d0 d0 bf 4a 54 e7 d1 8c 1e be bf
       -0.26271603760169493 -0.11765365719414081
0003c0 e4 75 b7 7d 70 cb d7 bf 7e 7a 5c 28 23 2c d6 bf
       -0.37179195668235665 -0.3464439291146063
0003d0 c7 42 4e 83 f9 8b d0 bf 6b 0d d7 ac 70 a7 bb bf
       -0.2585433752329149 -0.10802368373611208
0003e0 27 eb a5 11 48 39 c8 bf fc ec c2 59 94 f1 91 bf
       -0.18924809324001865 -0.017523115137675113
0003f0 09 8e 82 d7 6c b6 d4 bf 3b d6 47 90 d7 29 dd 3f
       -0.3236343483533522 0.4556788357725485
000400 b5 f7 24 10 76 67 c6 bf 91 df 86 92 be c9 de 3f
       -0.17503238476086627 0.4810635024000414
000410 96 f1 59 f2 1d 29 a5 3f c8 77 2d 72 d5 ab db bf
       0.04132932265654003 -0.4323629012122834
000420 ab a6 9f a0 a0 ed d0 bf c9 28 7f 86 a0 f1 bf 3f
       -0.2645036285963253 0.12478068622218354
000430 9d 49 23 6a 4a a2 c8 bf 61 e4 c2 c4 05 f4 d1 bf
       -0.1924527185679609 -0.2805189534661335
000440 37 89 d7 01 68 6d c9 3f 50 c8 ce 28 45 df d2 3f
       0.19865131463945726 0.29487732873088124
000450 40 08 40 49 8c c0 dc bf 50 dd 77 d6 61 55 d4 bf
       -0.44925219682057005 -0.31771131462251834
000460 84 b7 9b 43 62 7c d2 3f f6 ce 20 24 29 6d de bf
       0.2888417873608591 -0.47541264083996226
000470 a0 05 bf 43 64 c9 bb bf 63 ee f9 e0 a7 fd 97 bf
       -0.10854174283942664 -0.023428557497466317
000480 02 31 6a 77 ef d6 d2 bf 93 68 ce e5 4a f9 7c 3f
       -0.29436861669161385 0.007073681420388794
000490 1d 46 af df 53 a1 da 3f 65 b7 cf 1f 51 fe a4 3f
       0.41609665722089223 0.041002783902384356
0004a0 7a 04 da 9b 51 43 da 3f 9d a9 32 02 12 bf bc 3f
       0.4103588125217993 0.11229050210628207
0004b0 a2 aa 68 2a a1 53 83 3f 41 52 c6 c7 f1 2a a5 3f
       0.009436854464259629 0.041343265186843066
0004c0 2c 29 e8 5c 75 91 b4 bf bc 5b 82 79 ee d0 cc 3f
       -0.08034451978906948 0.22512608464304928
0004d0 c6 2e 50 77 4d 2b de 3f ea 9e b1 b2 58 15 c8 bf
       0.4713929810684302 -0.1881514427689049
0004e0 9d 7f cc 4e 5d f2 ac 3f a9 3c d2 12 15 74 c0 3f
       0.056536594265934804 0.12854255122190253
0004f0 e1 64 d7 ce fc 6c be 3f 11 95 05 31 a1 0d c6 3f
       0.11885051774824575 0.17229094403879988
000500 b3 7e f7 2f 9a 2c bd 3f 3a cf 43 97 4d a0 b3 3f
       0.11396182700218098 0.07666478102674726
000510 da 30 16 83 02 fa d8 bf 63 f0 64 d1 eb 9e ca bf
       -0.39025938798364523 -0.20797488903361047
000520 37 c8 78 0e e1 87 cc bf 52 f8 83 2e 5e ff db 3f
       -0.2228967018759833 0.43746141951112805
000530 f5 c2 ab 29 1b 18 b6 bf 9e e5 bb e9 73 41 ca 3f
       -0.08630532996518155 0.20512246048728583
000540 58 03 69 fa 34 0a b5 bf e2 54 54 5b 78 9f cb bf
       -0.08218699563532306 -0.21580414256519648
000550 7a 88 e9 d4 32 f3 d5 3f 78 c4 b9 54 76 1d bf bf
       0.3429686621876794 -0.12154330795762458
000560 94 0a 06 13 51 64 b0 bf b0 cd ae fb 3d 4b d8 bf
       -0.06403071131175359 -0.37959241464997273
000570 03 cc bc 1b 4f fd d2 3f 13 64 36 50 98 a4 c0 bf
       0.29671075543154773 -0.1300230399763512
000580 79 00 99 11 f5 ee d2 bf 1c 2b 6a 6c 2f 84 d6 3f
       -0.2958347961284811 0.3518179472672942
000590 a0 15 7f 7d 99 52 d3 3f 3a 23 92 5e 77 d4 dc 3f
       0.301916477732755 0.4504679130118806
0005a0 be d8 8b 5a b4 41 d1 3f fc 2d 95 4f 0c 6e d2 3f
       0.26963528482827914 0.28796680232764493
0005b0 b5 52 40 a4 8b ee dd 3f e1 6c ed b4 8d 98 e1 3f
       0.46768466034090334 0.54987225854293
0005c0 0f e2 7b 68 22 32 b8 bf f7 7a d3 4c 5c bf e1 3f
       -0.09451499033810527 0.554609441805808
0005d0 51 1d 3d 51 b1 0e d3 3f a6 7e 53 c0 2e dc c9 bf
       0.29777176793546284 -0.2020319403736625
0005e0 43 b8 07 7c e9 88 b3 3f ed 54 4f 30 eb e8 73 bf
       0.07630786207275357 -0.004860800462627807
0005f0 18 37 d4 17 68 82 c5 3f 0f 15 f7 aa b4 6d ae bf
       0.1680421940185901 -0.05943073832490075
000600 e5 31 eb 14 f1 39 81 bf cb 07 4a 28 8b ba c9 3f
       -0.008411296320809345 0.20100535838360964
000610 8b 65 d7 f1 f2 50 d0 3f 11 cc ee e6 49 d0 cb 3f
       0.2549407350284915 0.21729396606460274
000620 47 9b 9e 59 73 1e d7 bf d9 fe a2 d6 07 b3 df bf
       -0.3612335562888131 -0.49530216179480885
000630 27 27 c4 4a ea 3c cf 3f ac 93 7f 2b d2 1f d6 bf
       0.24404648447699026 -0.3456921982563539
000640 5c 76 47 c4 01 01 d4 3f 6a 96 05 ad 5c c4 d9 bf
       0.3125614563740322 -0.40260998627341016
000650 29 4c 2e be 78 1e a2 bf b9 ae 1e 98 f6 f6 d9 bf
       -0.035388730254588836 -0.40569844108061265
000660 63 a0 d7 1f 60 43 b4 bf 01 5d d3 ac 0b 7d d7 3f
       -0.07915306832694706 0.36700717809203814
000670 f7 f6 db b6 d9 27 d9 bf 1f b7 50 27 4e 5e bd 3f
       -0.39305727822635056 0.11472023448797274
000680 e7 1a 61 7a d0 63 dc 3f 92 fd 8e ba a7 17 b5 bf
       0.4435921855078235 -0.08239219956066382
000690 69 f3 44 83 1f d2 b4 3f 8e 7b 31 9b 91 cd d4 3f
       0.08133122401063776 0.32504692226023557
0006a0 82 75 21 d0 0f 5a b4 3f 7d 72 dc 9f 44 d1 dc 3f
       0.07949923354450131 0.4502727090019006
0006b0 38 91 0c 59 1a 7e cb bf d0 24 1f 59 43 56 c9 bf
       -0.2147858557519926 -0.1979450402416547
0006c0 21 f6 f4 17 b3 3a c9 3f 1f f0 1c 02 a7 fb ca bf
       0.19710386914987146 -0.21080482104469042
0006d0 53 df 9a 49 22 f8 d6 3f a3 2c a9 6e 46 32 b7 bf
       0.35889489353165976 -0.09061088754349327
0006e0 67 a6 cf 04 9d 54 b5 bf ce 5a 11 62 e8 ce c0 3f
       -0.0833223473306589 0.13131432331529996
0006f0 0b 28 81 f2 a2 e2 b8 3f a8 15 f8 43 eb 3a bb bf
       0.09720819874306146 -0.10636778268243197
000700 c9 5b 34 29 4c 55 ce 3f ca 90 2a d4 50 a4 dc 3f
       0.23697807323398326 0.44752903670656663
000710 66 33 d1 77 bd e6 ce bf 3f 21 df 61 02 ea b3 3f
       -0.24141662931870228 0.07778944863742242
000720 5a d5 67 a0 14 6f 9d 3f 0d 8d df 47 bb 58 c9 3f
       0.02874405125654298 0.19802037248073426
000730 8f 51 2b c5 32 13 d5 3f aa 03 6a 19 3c c3 dc bf
       0.3292967725258444 -0.4494161842522383
000740 39 d0 7e 5a 89 19 d3 3f f1 a1 89 b0 d6 48 d7 3f
       0.298433626531963 0.3638207172394053
000750 a3 fa fb db 96 78 b4 3f dc 8e c1 d0 11 8f ab bf
       0.07996504660330088 -0.05382590935985629
000760 e0 c4 c1 80 70 bd d2 3f df 61 b4 00 19 ec da bf
       0.2928124673263266 -0.42066025799570456
000770 1b 67 42 ce 69 88 c5 3f 29 e9 ed df 99 25 c9 bf
       0.16822550364741393 -0.19645999368715053
000780 73 08 2a 54 87 b9 df 3f 42 70 de fe f4 c3 d9 bf
       0.49569876879844016 -0.4025852669672113
000790 11 98 b7 1d 8e 95 d5 3f 45 0b 27 8b d7 7c be bf
       0.3372531213957482 -0.11909243724134651
0007a0 c7 e8 cb ad 19 0d b2 3f 2f 6b 9b cf 20 a7 af 3f
       0.07051239483908765 0.06182196172968301
0007b0 cd 6a fe 2c 23 d7 c6 3f 48 93 1b 70 34 5c e0 3f
       0.1784404725738881 0.5112554730991201
0007c0 24 98 21 fb 7b 22 cf bf 16 01 d2 ac 44 ad b8 3f
       -0.24323987734095553 0.09639386386152568
0007d0 8d f6 2e bd 96 86 da bf 35 5f 9b 48 28 be dd 3f
       -0.41446464991518256 0.4647312840511291
0007e0 eb 32 22 65 a3 b1 b6 bf 80 86 5a 8d e9 d6 d3 3f
       -0.08864804476815961 0.30999220661224314
0007f0 04 1b 93 73 43 08 cb bf c6 9f 9a 4c 09 a5 c4 bf
       -0.21118968146603134 -0.16128650894574842

b1 f8 [10, 1]
000000 09 34 77 7f e1 d9 e8 3f bb 3b cd d0 f3 ca ea 3f
       0.7765967835963475 0.8372744634779034
000010 1b b8 1f 15 87 e9 e3 3f 4d ae 4a 60 47 9f e9 3f
       0.6222567951751928 0.8006932144830415
000020 f1 8c a4 03 51 f7 f6 3f 0c 57 81 4a 2a 46 f7 3f
       1.4353799955650255 1.4546301756249163
000030 2b 32 07 e3 7b 84 f7 3f 35 b9 c4 3b 98 c4 f1 3f
       1.4698447101865308 1.1104967436509245
000040 d4 5c 8a 6c 0d 19 f1 3f 9a e1 db 5b a0 44 e2 3f
       1.0686163177359065 0.5708772462958678

W2 f8 [10, 10]
000000 f6 49 15 d2 fe 42 e8 3f e7 71 98 28 2e aa b0 bf
       0.7581781485735621 -0.06509674540615827
000010 31 1a 39 03 fe a2 d7 bf 4a fa 39 86 d7 2b cb bf
       -0.3693232566332965 -0.21227544836070172
000020 8d 8a 66 bd 65 38 d6 bf 74 58 db 41 f1 bf d6 3f
       -0.3471922254194986 0.3554652350552552
000030 46 8e 9a 7c c5 7a db bf 96 07 87 fb 06 c9 cd bf
       -0.4293683735688528 -0.2326973655854629
000040 6f c6 ec a0 c1 ee c8 bf e2 98 fa 6b fc 58 ac 3f
       -0.19478626592313072 0.05536640947438955
000050 25 0a 23 6a 42 99 f0 bf 89 7a 59 7e 95 3f d8 bf
       -1.0374168535205481 -0.378880856884202
000060 60 ca e1 69 cb 2a a4 3f 41 60 c2 2b a3 7e e1 3f
       0.03938899676804364 0.5467086653398
000070 dc ff 7e 9c 30 36 b6 bf 12 3d cf a7 3d d3 cc 3f
       -0.08676437206940996 0.22519655889343732
000080 31 59 21 c5 de 36 e4 3f bc 88 dc d3 a7 e2 d4 3f
       0.6316980219078571 0.32633395852657165
000090 60 38 c0 93 54 8e a8 3f be e8 23 8e d7 4c 68 3f
       0.04796089461898201 0.0029663286269371028
0000a0 95 03 3b e9 35 ef c4 3f 14 e1 3d 00 27 15 ac bf
       0.16355012787064696 -0.05484887960386878
0000b0 88 24 39 34 47 2f c2 bf c9 3b ae 30 a5 b4 dc bf
       -0.142067814349762 -0.44852571252789325
0000c0 7f 53 ba 01 ca fe da 3f 8d ea 92 a7 fc 45 bf 3f
       0.4218010918496517 0.1221616658321329
0000d0 f0 c8 6c bf ce dd d3 3f dd cc 0c 74 45 ad e2 3f
       0.3104130620369139 0.5836512819863874
0000e0 ea 67 bb 62 0f 91 d9 bf f2 ec 11 fa 64 95 c3 bf
       -0.3994787658863276 -0.15299665651750832
0000f0 97 63 9d 94 18 54 b1 3f e2 77 13 4d ce 4f db 3f
       0.06768945339480435 0.4267459633537084
000100 f3 2a 13 22 71 65 d0 bf 15 bc a2 41 8c 92 d6 3f
       -0.25619152381538796 0.35269457254156694
000110 27 2e 84 0a f1 13 8d 3f 18 ac 8a 20 59 7a c3 bf
       0.014198191770012759 -0.15217126931142455
000120 69 64 e0 07 4c 15 dc 3f 06 aa ac fe e1 53 cb bf
       0.4387998654288539 -0.21349739966656517
000130 29 ea 06 e6 6a f9 c6 bf 3d 6a fb 23 0e 8c c7 3f
       -0.1794866202524912 0.18396164662301998
000140 4b f6 df 62 d7 c3 a7 bf ce f9 ad 0b 8a 50 c3 bf
       -0.04641602594345481 -0.1508953625706923
000150 2e 14 b3 6f d4 4c e5 3f 60 8b a8 26 37 72 cd 3f
       0.6656286412841206 0.23004807841888475
000160 7b 45 c7 2a ea b4 c7 3f 42 b5 a4 89 e4 c5 e0 bf
       0.18520857895650153 -0.5241568268153645
000170 ce 63 8e dc f3 79 e1 bf 65 5d 92 56 23 71 c6 3f
       -0.5461367900598988 0.17532769896636605
000180 fa b7 42 e5 d5 69 e9 3f 44 c8 20 d4 60 83 e0 bf
       0.7941693761583786 -0.5160373824239817
000190 7e ed 31 fa bd db d8 3f a4 15 52 f6 1e 5a dd bf
       0.3884119933424798 -0.4586255460238482
0001a0 c7 5e 07 3c cc 7e c3 3f 9f 9b 3a f7 ca 7c d6 3f
       0.15230706149190196 0.3513667501778687
0001b0 63 23 9f 8f f3 df c4 bf c7 27 b8 85 43 0e ba 3f
       -0.16308445465827068 0.1017801476920389
0001c0 10 c3 0d 72 49 be 8b 3f ce 75 12 c0 c7 38 d8 bf
       0.013546537202019177 -0.37846559292833326
0001d0 7e 1e d6 aa 59 8a cc 3f fb 4b 70 85 5c 91 e1 3f
       0.22297211495991925 0.5489943128799263
0001e0 6d bb f0 6c 5a 3e c4 3f 83 cc 15 7e c5 b5 db bf
       0.1581528694091178 -0.43296944916728125
0001f0 8c 7f b4 8b cd 98 a7 bf 1b cc 5d 7f 9d 87 d1 3f
       -0.0460876687086503 0.27390229642986846
000200 d3 49 71 c1 12 1b b2 3f a0 4a 8e e4 d7 f1 c2 bf
       0.07072560522764286 -0.14800547275497866
000210 e1 af 59 97 14 13 e0 bf f8 3b 9e 4f d1 3f f1 3f
       -0.5023291545926406 1.078080473907674
000220 ae ec 41 e9 fa 53 c6 3f 7a 28 bb bd 20 fb c4 bf
       0.17443786992575866 -0.16391381515706255
000230 29 76 18 87 dd 9c e2 bf ee d2 c7 af a7 1a e8 3f
       -0.5816486013970393 0.7532537873472316
000240 b8 16 1a 55 e4 59 d5 3f 6b 45 09 7e 33 47 b7 3f
       0.3336115675996143 0.09093019320541422
000250 9a 2e c7 e4 68 d3 da 3f 0f 57 bf 1e 88 c0 e3 3f
       0.4191534265671436 0.6172524071250524
000260 fa d7 88 e7 0e 27 c2 bf b5 de a9 26 6a 8f a3 bf
       -0.14181696229360324 -0.038203541965171985
000270 f8 d9 3f 3e 5b 8f c4 3f c0 e0 9b b3 74 eb d1 bf
       0.16062489070436903 -0.27999608554774724
000280 31 03 89 be 3c 8c c2 3f af 70 5a b3 a3 13 e3 bf
       0.14490470221974186 -0.5961473944658077
000290 a9 46 b3 73 ec 63 a9 bf e0 f4 12 cc 7d 16 d9 bf
       -0.04959048187596455 -0.3919977658186564
0002a0 41 d2 ad 50 06 f0 b7 bf 99 43 44 9f 8b b5 c5 3f
       -0.0935062357874097 0.16960282589618883
0002b0 6a 13 78 d5 d9 ad d6 3f 7b 4a 53 ae 4a 27 c7 bf
       0.3543610176714568 -0.18088658821087109
0002c0 35 a9 9b 26 9e 01 e0 3f 7a 71 22 4f 1d dd ce 3f
       0.5001974824965943 0.2411228786849156
0002d0 b9 c6 9d 7a fa c8 cc bf 9b e4 92 fb c4 27 d2 3f
       -0.2248833750450581 0.2836773354316137
0002e0 0e ad 72 74 e5 ee ca bf e9 dd 2a 29 1e ad d4 bf
       -0.21041553674636088 -0.32306627292879725
0002f0 cf 3d d8 36 99 ee e1 3f c2 59 cf e5 99 bc b1 3f
       0.5603757926164067 0.06928407536120232
000300 8e d9 6f 7d 69 81 d5 bf 14 31 2b c9 a5 a8 ae bf
       -0.3360236859292848 -0.05988042908356497
000310 a6 7e 6b fe 7b 72 ef 3f 84 36 63 5c e5 69 b0 3f
       0.9827251404894539 0.06411584382586893

b2 f8 [10, 1]
000000 08 e0 df 82 ce 92 b1 bf e0 5c 6b 08 b1 93 b9 3f
       -0.06864634223154564 0.09990984397460378
000010 d6 53 09 d0 59 81 d3 3f a8 89 89 0a 8d 90 db bf
       0.30476994815881875 -0.4306976893332384
000020 e0 14 75 6c 63 69 a0 3f 40 78 29 be 1e b3 d8 3f
       0.03205404948179491 0.3859326226282782
000030 86 18 af 7c b7 22 d9 bf ba 60 fe 63 fe aa d4 3f
       -0.39274394203346963 0.32293662800794787
000040 e8 0a 29 46 d5 6b c8 bf 74 5e 25 4b 73 55 d4 3f
       -0.1907908051089955 0.31771547640298725
